data.pth (torch, 5418 bytes, 6 tensors)

l1.weight f4 [8, 54]
00000000: 9d0f b9bd 260a 0d3f 4432 f23e f458 8fb7
00000010: 3926 5b3e 6a57 363f 9f0a 743e ddbd 9f3e
00000020: e1bd ea3e fe1e 663e b66f 41be 5bba 033f
00000030: f874 4f3e 9e03 1a3f 082d f03e 84d7 ba3e
00000040: f9d6 20be c7e5 213f 11aa cdbe 79ea fcbe
00000050: a6a7 e7bc 8bc8 a7be d7c4 93be e58b edbb
00000060: d7f7 cd3e 94c2 22be 4cfc 9cbe 5019 353f
00000070: c68b 063d 3ff2 d33e d8db db3e 0808 ee3e
00000080: 33c9 dcbd 421d fc3e e6de 033f 8cd1 0e3f
00000090: a0d0 76bb d2f1 c03e d52d 1a3e edd5 c83e
000000a0: af16 fb3e 74ee e5be 3657 d83e 9651 0b3f
000000b0: 561e 253f 9c59 f73e b61a d9be 9f80 5c3d
000000c0: ca98 07be f9e8 03bf 2332 c03e 6048 85be
000000d0: 882f 393e b243 1c3e beb2 79bc 31a4 f9be
000000e0: 5901 f83e 1208 e33e 3859 483f 9819 53be
000000f0: d83a 053f b594 c43e 0755 0e3f 3e80 fa3e
00000100: 4205 893e a196 be3e ab0c 1a3f bc35 cf3e
00000110: 6753 79be 91f8 903e 0445 d93e 767e 47be
00000120: 683f d33e d5b5 2f3f 9bde e2bd d43f 2b3f
00000130: dcbb cf3e 158e 113f 24ba 0d3f 8698 983e
00000140: ef25 be3e 086d 00bf c64b b43e bbf0 ecbe
00000150: cbbe 65be 72ca c63e 4810 a9bd 7996 1d3f
00000160: 62af 19be 4ee6 a83e 5efe 933e 59a0 203f
00000170: 9ce6 ba3e 7fda 153f 4c6c 33be 0beb a43e
00000180: 3946 6f3e fc76 8ebe 6bd7 be3e 5e51 e0bd
00000190: 4590 dcbe 4fd8 6dbb 5838 e63e fe72 043f
000001a0: 47fc 833e d13b af3e 60d4 a43e 3fb9 9d3e
000001b0: 99f1 113f e7c7 4d3f 9f3a d53e 0572 4abe
000001c0: 6eee cf3d df86 acbe 3c72 ab3e 0436 543e
000001d0: 7808 ea3e 828e c33e 3571 3fbe 9a67 1abe
000001e0: eea5 383f 4df9 e13e b1d7 f63e 1f34 36be
000001f0: 15a5 19be af8a acbe 82e5 b83e a583 acbe
00000200: e90d 1b3f edcc acbe be82 acbe 23fe fabe
00000210: 5c55 b13e 021b c1be f7c3 2c3f 38a9 343f
00000220: fa4a bd3e 4054 9e3e 1342 c4be 5e09 f73e
00000230: fc6e bf3e c0bf ef3e 853d 143f 0f9e 8ebd
00000240: 5dfb 0b3f 6c3c a63e a82f c73e fa74 7b3e
00000250: bd6c 94be cc98 173f 4fd6 343e b77e dc3e
00000260: 1ddb f23e 966b 203f 9123 453f e049 cc3e
00000270: d39a 733e 8ab6 173f 8f2f 49bd 108c c43e
00000280: 7a46 c63e 5828 b73e aa73 8dbe b2a8 293e
00000290: bee2 7dbe e33f 823e 8779 b93d ebac 313f
000002a0: 3deb 88be 6796 97be 98a0 90be dfd4 a4be
000002b0: fb83 9c3e 3aaf 143f 2523 203d 74e1 fa3e
000002c0: 245c 57be d525 de3e a44d af3e 14df 203f
000002d0: 1f0f 2a3b daab d13e 7f80 40be 71e6 d43e
000002e0: ffcf 093f 4aea 2a3f fe5c 673e 8260 7f3e
000002f0: 780f 30be 81e2 a93d 6839 26be 6cb8 c43c
00000300: 9177 003f e88c de3e 5703 abbc 9c71 5fbd
00000310: f080 b6bd 16f1 d33e 6d3a 05be 5c77 bdbe
00000320: 38ed 82be a8dc 58bd 1c5f 263f 9344 51bc
00000330: 324f 863e 7e50 bebb db5f d03e 7e45 8abc
00000340: e902 26bf 798d 3cbe 0e6d 8fbd d335 05be
00000350: f517 993e 555e a93d caa8 f9bd 4724 a0bd
00000360: ebe1 4b3f 5b1a bfbd bf37 a5be d042 6e3e
00000370: d4df 8c3e 767a 0dbf 50e1 44be 3d72 26be
00000380: 1fc5 10bf 4bd9 01be 5063 053f 25e2 8abe
00000390: 0253 573d fd74 81be 7d96 9bbd ebb7 d5bb
000003a0: 4288 eb3e 731d 21bf 0a99 f73e 7fc4 c33e
000003b0: 5c79 ca3e b8c1 033f dd44 153f 9abb b23e
000003c0: 0250 40be b7fe 9e3e 64c3 833e 79cf 06bf
000003d0: 608f 1a3e 2dbd dabe feed d3be 2216 21be
000003e0: 4710 ca3e af03 b5be b8da 54be 4af5 bbbd
000003f0: 5f44 4d3e 89c6 e5be 0da5 89bc 1008 44be
-0.09036181 0.5509361 0.47303975 -1.708835e-05 0.214013 0.71227133 0.23832177 0.31199542
0.4584799 0.2247276 -0.1889027 0.5145623 0.20259464 0.6016177 0.46909356 0.3649255
-0.15707006 0.6324124 -0.40168813 -0.49397638 -0.028278183 -0.3277019 -0.28861114 -0.0072493427
0.4022815 -0.15894538 -0.30661237 0.7074175 0.032848142 0.41395757 0.42941165 0.46490502
-0.10780563 0.49241072 0.5151199 0.55788493 -0.0037660971 0.37684494 0.15056546 0.39225712
0.49040744 -0.44908488 0.42254037 0.54421365 0.64499414 0.48310554 -0.4240319 0.0538336
-0.13241878 -0.51527363 0.3753825 -0.2603178 0.18084538 0.15260199 -0.015240369 -0.4875808
0.48438528 0.44342095 0.78261137 -0.20615232 0.52042913 0.38394704 0.5559849 0.48925966
0.26761824 0.37224296 0.6017558 0.40470684 -0.24348222 0.2831464 0.42435467 -0.19481835
0.41259313 0.6863683 -0.11077615 0.6689427 0.40573013 0.56857425 0.55362153 0.29803866
0.37138316 -0.5016637 0.3521406 -0.46277413 -0.22436063 0.3882633 -0.082550585 0.6155773
-0.1500831 0.3298821 0.28905004 0.6274467 0.36504066 0.58536524 -0.1752178 0.32210574
0.23366632 -0.27825153 0.37273726 -0.109530196 -0.4307882 -0.003629226 0.44964862 0.51737964
0.2577841 0.34225324 0.3219328 0.30805394 0.57009274 0.8038315 0.41646287 -0.19770057
0.10152899 -0.33696648 0.3348559 0.2072373 0.45709586 0.38194662 -0.18695529 -0.15078583
0.7212819 0.44135514 0.48211434 -0.1779332 -0.1500438 -0.33699557 0.361126 -0.33694187
0.605681 -0.33750096 -0.33693498 -0.49022016 0.34635437 -0.37715918 0.6748652 0.7057071
0.36971265 0.30923653 -0.3833166 0.48249334 0.37389362 0.4682598 0.5790637 -0.06963741
0.54680425 0.32467973 0.38903546 0.24556342 -0.2898921 0.59217525 0.17659877 0.43065426
0.47432795 0.62664163 0.77007395 0.39900112 0.2378953 0.5926291 -0.04911762 0.3838811
0.38725644 0.35772967 -0.27627307 0.16568258 -0.24793527 0.25439367 0.090563826 0.69404477
-0.26741973 -0.29606935 -0.28247523 -0.32193658 0.30569443 0.58079875 0.039096016 0.49000132
-0.21031243 0.4338824 0.34238923 0.6284039 0.0025948954 0.40951425 -0.18799017 0.41582063
0.53833 0.66763747 0.22594067 0.24939159 -0.17193401 0.08295155 -0.16232836 0.02401372
0.50182444 0.43466878 -0.020875616 -0.054551706 -0.089113116 0.4139487 -0.13010569 -0.37005126
-0.2557161 -0.05294481 0.64988875 -0.012772697 0.26232296 -0.0058079353 0.40698132 -0.01687884
-0.6484819 -0.18413343 -0.070032224 -0.13008814 0.2990109 0.082699455 -0.12190397 -0.07819419
0.796416 -0.09331199 -0.32269093 0.23267674 0.27514517 -0.55264986 -0.19226575 -0.16254516
-0.5655078 -0.12680547 0.52104664 -0.2712566 0.052569397 -0.25284567 -0.07597063 -0.006522169
0.46002394 -0.6293556 0.48358947 0.38235852 0.39545715 0.51467466 0.583082 0.34908754
-0.1878052 0.31053707 0.2573501 -0.5266033 0.15093756 -0.42722455 -0.4139251 -0.15731099
0.39465544 -0.35354373 -0.2078656 -0.091776446 0.20045613 -0.44878033 -0.016802335 -0.191437

l1.bias f4 [8]
00000000: aea3 283f c302 483f 188d ac3e 1f04 263f
00000010: 3237 2e3f a46d b73e 2f85 183f 73c6 ddbd
0.65874755 0.78129214 0.33701396 0.6485004 0.6805297 0.35825837 0.5957822 -0.10828867

l2.weight f4 [8, 8]
00000000: 6652 203f beac 2b3f 41a7 8abf 02d4 873f
00000010: 7ebd 63bd 42ad da3c 1df0 153f afb1 883e
00000020: 9768 753f 4d41 993d c8a9 8e3f 0569 5fbf
00000030: 8a6f 4a3c 95d0 973e ef5d b73f 8309 613e
00000040: 8d81 d7be 4a20 963f f92b bb3e 18ab f13e
00000050: 8ca4 e13d 778b 773f b6bc 53bf 354f 8a3e
00000060: 93a1 943e e75a 2a3f 8dba 393f 0b28 7dbd
00000070: 6c53 3bbf 06bb 7e3f 0182 8fbe ed41 83be
00000080: 7214 303f e132 613d ebf7 003f b3d4 1d3f
00000090: 979a 80bf b7d1 fdbd d2ef 88bf 24e3 9ebd
000000a0: bbcd 79bd 5f0b 3e3f 2a76 13bf cab2 c03e
000000b0: 23e4 613f d531 2b3d b3ef 5fbf e069 b93c
000000c0: 24d6 21bf 91e2 323f 5cfd 063f e832 bcbe
000000d0: 91c8 ac3f 45dd c53e 0264 1d3e 8fe7 79bd
000000e0: fa8d 913f 2d33 dc3e 8298 85be 8f2a aa3e
000000f0: 738d 35bf 9ef7 923d d338 a93e 14b0 a5bd
0.6262573 0.6706046 -1.0832292 1.0611575 -0.055600636 0.026693944 0.5856951 0.26698062
0.95862716 0.07483158 1.1145563 -0.8726962 0.012355695 0.29651323 1.4325541 0.21976285
-0.42091027 1.1728604 0.36556986 0.47200847 0.11017713 0.9669718 -0.82709825 0.27013555
0.2902952 0.66544956 0.7255028 -0.061805766 -0.73174167 0.99504125 -0.28028873 -0.25636235
0.687812 0.054980163 0.5037829 0.6165268 -1.0047177 -0.123935156 -1.0698187 -0.077581674
-0.060987215 0.742361 -0.5760218 0.37636405 0.88238734 0.04179557 -0.87475127 0.022633493
-0.6321738 0.6987696 0.52730346 -0.36757588 1.3498708 0.38645378 0.15370181 -0.061011847
1.1371453 0.43007794 -0.26092917 0.33235595 -0.7091896 0.071761355 0.33051166 -0.08090225

l2.bias f4 [8]
00000000: 3625 243f 3869 e33e 2dc7 943d 9986 81be
00000010: e640 b33b 0912 443e b4d8 253f 8285 093f
0.6411928 0.44416213 0.07264552 -0.25298002 0.005470383 0.19147505 0.6478379 0.5371934

l3.weight f4 [7, 8]
00000000: 1879 803e d2fd 59bf 8da8 423e e1e5 173f
00000010: 310f 223f d74d 00bf 0d74 3dbf ef72 e5bd
00000020: ba0a bebf cf15 163f ae0e 4abf ccda e53d
00000030: 861f 823f 3730 4abf 20d6 6fbf d756 8a3e
00000040: 4180 633f 7958 a1bd ec34 38bf d05e 7fbf
00000050: 7db3 90be 7996 a5bf f4d6 3cbf ad3b 2d3f
00000060: 726f d03e 90bb c0bf b315 873d f5bb 83bf
00000070: 1957 33bf c170 913f 9c80 363f 6cef 21bc
00000080: 97d0 8cbf 728b eebe dbba 013f 14a2 d33e
00000090: 75e6 9dbe 3a08 16be a059 d53e ed18 40bf
000000a0: 4463 23bf 989c d03e 9d4f 723a f002 2e3f
000000b0: b8d0 99bf f9b6 b5bf daae b7be bdb9 7b3e
000000c0: 2334 43bf d43c 493f c65e cfbe bbfb a8bf
000000d0: 1fc2 52bf f50b a4bf 3f45 2a3f a190 76bf
0.25092387 -0.85152924 0.1900961 0.5933514 0.6330443 -0.50118774 -0.74005204 -0.112035625
-1.4847023 0.5862703 -0.7892865 0.11223373 1.016587 -0.7897982 -0.93686104 0.2701938
0.88867575 -0.07878203 -0.7195575 -0.9975405 -0.2826194 -1.2936546 -0.7376549 0.67669183
0.40710026 -1.505724 0.06595936 -1.0291735 -0.70054775 1.1362535 0.7128999 -0.009883743
-1.1001157 -0.46590763 0.50675744 0.41334593 -0.30839887 -0.14651576 0.4166994 -0.75038034
-0.6382334 0.40744472 0.00092434307 0.6797323 -1.2016821 -1.4196464 -0.3587559 0.24582572
-0.7625143 0.7860844 -0.40501994 -1.3201822 -0.82327455 -1.2816149 0.6651191 -0.96314436

l3.bias f4 [7]
00000000: be66 b0be 5c7b 2c3e 1bc4 d73e 7ffd 98bd
00000010: 6c05 9bbe 1be4 07bf 4b24 303f
-0.34453386 0.16843933 0.42141804 -0.074702255 -0.30277574 -0.53082436 0.6880538
